model_save/LeNet.pth (torch_old, 252649 bytes, 18 tensors)

conv1.0.weight f4 [6, 1, 3, 3]
-0.12095816 -0.091564745 0.03142695 0.15908146 0.21032758 0.2511135 -0.06457325 0.14803304
-0.46339908 0.15508811 0.1207222 0.005534723 0.18770978 -0.0006671703 -0.0032534094 0.19015978
0.13889761 0.03312916 -0.07701006 0.27593964 0.39699042 -0.41483265 -0.24694838 -0.053502545
0.17330737 -0.36785647 -0.22095364 -0.31363547 -0.44365102 -0.31926247 -0.08193641 0.1146157
-0.4624788 0.35343096 0.18631765 -0.11594915 -0.2730047 -0.08611561 -0.19657615 -0.33544916
0.20231152 -0.29859748 -0.055731222 0.06803079 0.080776125 -0.31388682 -0.19433948 -0.20871747
0.13523838 -0.27450693 0.012526393 0.057086468 -0.076881886 -0.1198169
00000000: e9b8 f7bd 4c86 bbbd 8cb9 003d 40e6 223e
00000010: 1d60 573e f391 803e fb3e 84bd f995 173e
00000020: a542 edbe 6bcf 1e3e 333d f73d 9f5c b53b
00000030: fe36 403e 0ae5 2eba 2737 55bb 3fb9 423e
00000040: 2d3b 0e3e 71b2 073d 73b7 9dbd f647 8d3e
00000050: 5442 cb3e f264 d4be 09e0 7cbe 7c25 5bbd
00000060: 7d77 313e af57 bcbe ac41 62be d494 a0be
00000070: 3a26 e3be 5f76 a3be 47ce a7bd a3bb ea3d
00000080: 05ca ecbe e7f4 b43e 0eca 3e3e bf76 edbd
00000090: 46c7 8bbe 625d b0bd 424b 49be febf abbe
000000a0: c02a 4f3e c5e1 98be 6c46 64bd ba53 8b3d
000000b0: f46d a53d c6b5 a0be ee00 47be 08ba 55be
000000c0: ee7b 0a3e 2c8c 8cbe 803b 4d3c 80d3 693d
000000d0: 4074 9dbd 9062 f5bd

conv1.0.bias f4 [6]
0.0061728964 -0.060705334 0.026825206 0.07949718 -0.32475266 -0.28978658
00000000: 0246 ca3b 28a6 78bd 89c0 db3c 6bcf a23d
00000010: fb45 a6be e85e 94be

conv2.0.weight f4 [16, 6, 5, 5]
0.05877498 0.034275293 0.06776094 -0.11820278 -0.034526687 0.020399697 -0.23845859 -0.1335106
-0.008743453 0.08456569 0.00953513 -0.010527781 -0.21252607 -0.138203 0.07878898 0.06621653
0.10502823 -0.08148595 -0.31291553 -0.3162183 -0.12277181 -0.06916028 0.004642631 0.14914465
0.12910306 0.10912542 -0.039404433 -0.063974276 -0.00767401 0.025076753 0.13533178 -0.11114021
-0.21003823 -0.0904311 0.11024346 0.09106228 -0.026387613 -0.25388074 -0.25727493 -0.15905257
0.14854334 0.11182351 -0.074224204 -0.056370012 -0.08509196 0.011072211 -0.008348126 0.034198664
0.053358816 0.13867678 0.010426873 0.1362224 0.09716675 -0.09048266 -0.09069437 0.080745205
0.07633471 -0.053077307 -0.035455927 -0.12581842 -0.050223183 0.027408304 0.15661077 0.25451928
0.30891278 -0.040523462 -0.120963134 0.015828192 -0.0053209425 0.045827255 0.0028587396 -0.12961893
0.22069584 0.08596176 -0.1357713 -0.030789772 0.02011337 -0.047250632 -0.12333656 -0.11712475
-0.019255644 0.00369751 -0.030108165 -0.044200778 0.00082904263 -0.09752586 -0.0100776525 0.08630515
-0.08868807 -0.12608555 -0.26467276 -0.11015351 0.065062374 -0.0065324777 0.14223519 -0.18771918
-0.123105794 -0.056884523 -0.089738496 -0.029200459 0.06559153 -0.06524622 -0.00957004 -0.0058881096
0.024239965 0.041354783 -0.07716612 0.06972107 0.07633668 -0.006399147 -0.071046986 -0.06446734
-0.052469224 0.025651552 0.02664119 0.057830606 -0.0033515717 -0.013884774 0.039213825 -0.029104143
-0.070578635 -0.034082394 -0.04798065 0.013735032 0.0252413 -0.022903271 0.031231396 -0.065795034
-0.06398152 0.02967517 -0.04604757 0.06703989 -0.07889077 0.008269735 0.06764646 0.016358629
-0.044201475 -0.048047364 -0.058251962 0.06524055 0.032107405 0.06931807 0.034701012 -0.049433827
0.045264333 -0.025969379 -0.06676152 0.0707417 -0.05317079 0.058603644 0.010273189 -0.036492012
-0.08821789 -0.085868694 -0.13713329 -0.15261634 -0.040668067 0.020109976 -0.19056594 -0.13953044
-0.023647983 0.1269176 0.05990396 -0.18858995 0.15980597 0.16913591 0.16386351 4.4767192e-05
-0.129483 0.12729286 -0.059483115 -0.06294978 -0.27885762 -0.040672693 0.013908788 0.089540295
0.13681884 0.07735511 0.0024972928 -0.048694737 -0.058929756 0.14879233 -0.06731171 -0.14834322
-0.030932914 -0.104192115 0.15265517 -0.026535444 -0.2208121 0.02914043 0.10433133 0.052649856
-0.06005021 -0.18014573 0.15090153 -0.09178428 -0.003452654 -0.14174442 -0.05558701 0.07961568
-0.102073394 -0.09375678 0.22744153 0.08441802 -0.056120418 -0.06895514 -0.14362398 0.12744547
0.105888456 -0.10569079 -0.08313796 0.022003865 0.041101847 0.099798575 -0.25719705 0.12329846
0.007685221 -0.17020918 -0.07253708 -0.082248166 0.21199703 -0.18584853 -0.07131211 -0.099576555
-0.073518895 -0.028665232 0.005710455 -0.036021013 -0.008544929 -0.009380211 -0.1351531 -0.01604001
0.115473434 -0.13761061 -0.065983176 -0.11134269 0.08850208 0.0479821 -0.016818175 -0.07083383
0.008738097 -0.07284797 -0.16471992 -0.03041069 -0.051275842 0.049608592 0.009903737 0.18293248
0.039322354 -0.011954195 0.07592229 0.047460496 0.0001573479 -0.013369458 -0.05714513 0.013300972
00000000: 09be 703d 4064 0c3d 3fc6 8a3d 4d14 f2bd
00000010: db6b 0dbd 441d a73c 7d2e 74be 01b7 08be
00000020: b340 0fbc c730 ad3d 3c39 1c3c b77c 2cbc
00000030: 6fa0 59be 1685 0dbe 1e5c a13d 889c 873d
00000040: 0a19 d73d 1be2 a6bd 7736 a0be 5de7 a1be
00000050: c96f fbbd e8a3 8dbd 3621 983b 60b9 183e
00000060: 9833 043e 267d df3d 8b66 21bd f204 83bd
00000070: 4376 fbbb c36d cd3c 6a94 0a3e 7a9d e3bd
00000080: 4314 57be f133 b9bd 53c7 e13d dc7e ba3d
00000090: d62a d8bc a8fc 81be 8ab9 83be adde 22be
000000a0: bf1b 183e b903 e53d dc02 98bd 3ee4 66bd
000000b0: b244 aebd 3868 353c 94c6 08bc e613 0c3d
000000c0: c68e 5a3d 4901 0e3e 7ad5 2a3c e37d 0b3e
000000d0: 5cff c63d f94e b9bd f8bd b9bd be5d a53d
000000e0: 5f55 9c3d 9767 59bd 3c3a 11bd 8bd6 00be
000000f0: d3b6 4dbd 6187 e03c 935e 203e 5a50 823e
00000100: d129 9e3e eefb 25bd 85bb f7bd 20aa 813c
00000110: 4d5b aebb 5cb5 3b3d b159 3b3b d3ba 04be
00000120: 17fe 613e b80c b03d a207 0bbe d53a fcbc
00000130: cbc4 a43c e189 41bd e197 fcbd 1adf efbd
00000140: 03be 9dbc ed51 723b 66a5 f6bc e00b 35bd
00000150: 1c54 593a a3bb c7bd bd1c 25bc c1c0 b03d
00000160: 17a2 b5bd 921c 01be 3083 87be 2a98 e1bd
00000170: 6c3f 853d 650e d6bb 1aa6 113e 7539 40be
00000180: e41e fcbd bfff 68bd d1c8 b7bd cd35 efbc
00000190: da54 863d cf9f 85bd a8cb 1cbc 0bf1 c0bb
000001a0: e492 c63c a263 293d 4509 9ebd ecc9 8e3d
000001b0: 6856 9c3d f0af d1bb 1581 91bd 7407 84bd
000001c0: f8e9 56bd 3423 d23c a03e da3c c9df 6c3d
000001d0: 0ba6 5bbb f77c 63bc ad9e 203d d06b eebc
000001e0: 888b 90bd fb99 0bbd 5c87 44bd e608 613c
000001f0: d8c6 ce3c a49f bbbc fcd8 ff3c 8cbf 86bd
00000200: be08 83bd 5819 f33c 609c 3cbd 364c 893d
00000210: 7c91 a1bd c87d 073c 3a8a 8a3d 8802 863c
00000220: 9b0c 35bd 50cd 44bd 9c99 6ebd d69c 853d
00000230: 0e83 033d a2f6 8d3d a622 0e3d 207b 4abd
00000240: 1867 393d bcbd d4bc 44ba 88bd 06e1 903d
00000250: 9dc9 59bd 600a 703d e150 283c a678 15bd
00000260: 95ab b4bd eddb afbd ab6c 0cbe 7547 1cbe
00000270: 8f93 26bd adbd a43c b823 43be 11e1 0ebe
00000280: 6ab9 c1bc b0f6 013e db5d 753d b91d 41be
00000290: 2da4 233e f731 2d3e d6cb 273e 68c4 3b38
000002a0: 3197 04be 0f59 023e 91a4 73bd d0eb 80bd
000002b0: 6dc6 8ebe 6998 26bd afe1 633c e760 b73d
000002c0: 3d1a 0c3e 5b6c 9e3d 9fa9 233b 2274 47bd
000002d0: 5460 71bd 045d 183e b9da 89bd 49e7 17be
000002e0: 0667 fdbc ad62 d5bd a351 1c3e dc60 d9bc
000002f0: 911c 62be e9b7 ee3c aaab d53d 60a7 573d
00000300: 36f7 75bd 1f78 38be ee85 1a3e 66f9 bbbd
00000310: ec45 62bb 7325 11be 34af 63bd 8c0d a33d
00000320: db0b d1bd 8e03 c0bd 6fe6 683e 5be3 ac3d
00000330: 86de 65bd 5a38 8dbd 2a12 13be 1181 023e
00000340: 0cdc d83d 6a74 d8bd 3c44 aabd 7341 b43c
00000350: 695a 283d 3263 cc3d 55af 83be e783 fc3d
00000360: 4ed4 fb3b 514b 2ebe 528e 94bd ba71 a8bd
00000370: c015 593e 144f 3ebe 150c 92bd cbee cbbd
00000380: 1391 96bd 59d3 eabc c51e bb3b c58a 13bd
00000390: 0800 0cbc 75af 19bc 9365 0abe 5766 83bc
000003a0: 567d ec3d cce9 0cbe 3022 87bd a307 e4bd
000003b0: 9440 b53d e188 443d 45c6 89bc 5411 91bd
000003c0: 3c2a 0f3c 5131 95bd 57ac 28be d71f f9bc
000003d0: 9e06 52bd 6132 4b3d 4943 223c a752 3b3e
000003e0: 7a10 213d 87db 43bc 257d 9b3d f065 423d
000003f0: c1fd 2439 920b 5bbc 0311 6abd 52ec 593c

conv2.0.bias f4 [16]
0.039207585 0.11837226 0.018215913 0.06296151 -0.005036062 0.08105087 -0.031426754 -0.0076998128
-0.04116807 0.03856427 0.0271402 0.01204392 0.11724412 0.029345416 0.04279283 0.031766176
00000000: 2298 203d 286d f23d 8a39 953c f7f1 803d
00000010: 8d05 a5bb 00fe a53d 57b9 00bd b64e fcbb
00000020: da9f 28bd 91f5 1d3d 2055 de3c dd53 453c
00000030: af1d f03d cc65 f03c 8947 2f3d 401d 023d

fc1.0.weight f4 [120, 400]
-0.045469824 -0.049207367 -0.037969757 -0.037525736 -0.019300714 -0.04169283 -0.21946615 0.010074782
-0.048666734 -0.0823011 0.030266995 -0.13494356 0.046790775 -0.00772886 -0.008833479 -0.16076046
-0.06435177 0.08426267 0.027299916 0.073664136 -0.16409615 -0.067047454 0.059169516 -0.06907354
-0.024852347 0.08790101 0.05493685 -0.17787853 -0.21331084 -0.09595105 0.04929564 -0.02374138
-0.16351888 -0.15552272 -0.068437085 -0.08231666 0.12097455 0.11985344 -0.04368232 0.08097453
-0.010129478 0.02717587 0.0730214 -0.036800314 -0.037147004 -0.12512039 -0.011793277 -0.07920038
-0.075087436 -0.048475847 0.045580152 0.060872123 0.090480655 -0.010137162 -0.040099874 -0.12888944
-0.13177426 0.18453686 0.022935374 -0.069633424 -0.002428376 -0.09735302 0.025068996 0.08145683
-0.04206893 -0.07085461 -0.09629331 -0.1514885 0.071436875 0.0019173162 -0.076456636 -0.05645855
-0.044868458 0.06969472 0.18825358 -0.14638336 0.049936756 0.06900642 -0.05720417 -0.08602734
0.015792606 0.0040156622 -0.18104827 -0.09022846 -0.14190842 -0.12303648 -0.28194928 -0.17959417
0.046438526 -0.14918913 0.0066143577 0.0049058497 -0.09418072 0.04677519 -0.020885052 0.0517902
-0.12187305 -0.08840591 -0.010545397 0.008618336 -0.027475614 -0.046771362 -0.010325551 -0.053666025
0.0824784 -0.07627112 -0.018491087 -0.045991812 -0.11142593 0.0024168321 0.10215636 0.09289632
-0.089687966 -0.07617026 0.14852446 0.02842694 0.03481239 -0.063039966 -0.10253932 0.07384557
-0.01890031 -0.023271019 0.03949231 -0.07158213 -0.027386386 0.087977245 -0.05813842 -0.19006096
-0.092642464 -0.14946833 -0.037959944 -0.0019851914 -0.12303307 -0.059163503 -0.18091555 0.07406332
0.047708426 0.21350528 -0.027848545 -0.022356184 0.16084431 0.098633654 0.09927502 -0.032523334
-0.095897175 0.07824475 -0.07693779 -0.066892646 -0.01906811 0.079235226 -0.033863515 0.057426877
0.08356595 0.033095744 0.19338883 0.026240071 -0.048037652 -0.04604246 -0.015515809 -0.021448998
0.009324829 -0.058718327 -0.04699577 0.005481811 -0.062564895 -0.07556115 0.023178654 -0.056699205
-0.13826498 0.010557405 0.017087441 -0.018999947 0.16999531 -0.034326155 -0.277651 -0.08106373
-0.14399447 -0.09249577 8.544875e-05 0.086461335 0.07222816 -0.033418573 0.023894446 0.08830026
0.10966408 -0.07009422 -0.033357024 -0.10120698 -0.13685387 -0.07629529 -0.21050344 -0.10740826
-0.13325153 -0.1231882 -0.33446988 0.00806389 -0.0053939247 0.015907146 0.07059275 -0.04938771
-0.110096686 -0.05761688 -0.1480934 0.050763205 0.08962213 -0.09168973 -0.0051371492 -0.051919747
-0.005216259 0.049603675 -0.056271546 0.0097866785 0.11122087 -0.06168731 -0.00942713 -0.07060476
-0.17219567 -0.16183649 -0.13606107 0.028043568 -0.041617233 0.036540296 -0.02620537 -0.10635624
0.046966035 -0.1250965 -0.08405372 0.043034505 0.121297054 0.097342454 0.07368561 0.07107541
0.027982652 -0.033043757 -0.014116259 0.0544962 -0.09349847 -0.116045356 -0.12815253 -0.13926654
-0.26863885 -0.0777112 -0.06395883 -0.029182998 -0.038419735 -0.02923879 -0.049918097 -0.095974065
0.13850795 -0.041063227 -0.03672868 0.086803176 -0.051421903 0.051451474 0.0015434674 0.019495023
00000000: 913e 3abd aa8d 49bd 2d86 1bbd 96b4 19bd
00000010: 881c 9ebc 1ac6 2abd bcbb 60be b310 253c
00000020: c556 47bd 7b8d a8bd 7df2 f73c a52e 0abe
00000030: afa7 3f3d 6042 fdbb 4cba 10bc 649e 24be
00000040: dcca 83bd e891 ac3d 13a4 df3c 39dd 963d
00000050: d208 28be 2d50 89bd bc5b 723d 6e76 8dbd
00000060: 2697 cbbc 7205 b43d 7605 613d ca25 36be
00000070: 286e 5abe fc81 c4bd 3aea 493d 487d c2bc
00000080: 7e71 27be 5941 1fbe be28 8cbd a395 a8bd
00000090: 81c1 f73d b875 f53d 3bec 32bd f9d5 a53d
000000a0: 1cf6 25bc ee9f de3c 3e8c 953d edbb 16bd
000000b0: 7527 18bd 8f1f 00be 9738 41bc cf33 a2bd
000000c0: 71c7 99bd 9c8e 46bd 41b2 3a3d 0c55 793d
000000d0: ec4d b93d 5716 26bc c43f 24bd 98fb 03be
000000e0: d5ef 06be 3bf7 3c3e f7e2 bb3c f89b 8ebd
000000f0: 6425 1fbb 0561 c7bd 7f5d cd3c d7d2 a63d
00000100: 7850 2cbd 391c 91bd 6d35 c5bd cd1f 1bbe
00000110: 7f4d 923d 754e fb3a 4c95 9cbd 1541 67bd
00000120: fdc7 37bd 1bbc 8e3d 8cc5 403e 85e5 15be
00000130: 7c8a 4c3d 3d53 8d3d eb4e 6abd 1a2f b0bd
00000140: 7f5f 813c d195 833b b864 39be b3c9 b8bd
00000150: 7150 11be 8dfa fbbd a85b 90be 89e7 37be
00000160: 5336 3e3d 09c5 18be 41bd d83b 40c1 a03b
00000170: d2e1 c0bd 5797 3f3d 2117 abbc f621 543d
00000180: 9498 f9bd 280e b5bd 9ac6 2cbc ec33 0d3c
00000190: 8a14 e1bc 5493 3fbd 802c 29bc e8d0 5bbd
000001a0: 6fea a83d 0834 9cbd 9f7a 97bc e961 3cbd
000001b0: 4733 e4bd b763 1e3b 5b37 d13d 6d40 be3d
000001c0: 53ae b7bd 27ff 9bbd cc16 183e 9ddf e83c
000001d0: 7097 0e3d 191b 81bd 2300 d2bd 593c 973d
000001e0: d3d4 9abc dda2 bebc b0c2 213d a799 92bd
000001f0: 6a59 e0bc 6a2d b43d 8d22 6ebd 579f 42be
00000200: 55bb bdbd 3a0e 19be e37b 1bbd fc19 02bb
00000210: c3f8 fbbd 6e55 72bd ed41 39be 83ae 973d
00000220: e969 433d 21a1 5a3e a222 e4bc 5124 b7bc
00000230: 5fb4 243e 7100 ca3d b450 cb3d 3037 05bd
00000240: bd65 c4bd c93e a03d 8f91 9dbd 03ff 88bd
00000250: ba34 9cbc 1446 a23d 78b4 0abd 7238 6b3d
00000260: a024 ab3d 678f 073d b907 463e 6bf5 d63c
00000270: 21c3 44bd 0597 3cbd 0536 7ebc cfb5 afbc
00000280: 2bc7 183c a182 70bd a37e 40bd c3a0 b33b
00000290: 0622 80bd cebf 9abd 29e1 bd3c 6d3d 68bd
000002a0: 5695 0dbe f7f8 2c3c f6fa 8b3c c7a5 9bbc
000002b0: 4013 2e3e 9599 0cbd 4628 8ebe be04 a6bd
000002c0: 4973 13be 6c6e bdbd f332 b338 a412 b13d
000002d0: 5cec 933d eae1 08bd 49be c33c c4d6 b43d
000002e0: 9097 e03d 8f8d 8fbd 60a1 08bd 9b45 cfbd
000002f0: 6c23 0cbe b440 9cbd 378e 57be ddf8 dbbd
00000300: 1773 08be 184a fcbd a33f abbe 681e 043c
00000310: 85bf b0bb b44f 823c ef92 903d c44a 4abd
00000320: 5f7a e1bd adff 6bbd cca5 17be 14ed 4f3d
00000330: cf8b b73d d3c7 bbbd 8855 a8bb cda9 54bd
00000340: 27ed aabb 392d 4b3d fe7c 66bd 4e58 203c
00000350: c4c7 e33d d5ab 7cbd 4074 1abc 3a99 90bd
00000360: 1054 30be 77b8 25be 9853 0bbe a0bb e53c
00000370: d576 2abd 47ab 153d a5ac d6bc 4dd1 d9bd
00000380: 755f 403d 4c19 00be 5b24 acbd f344 303d
00000390: 976a f83d 7b5b c73d 7be8 963d fc8f 913d
000003a0: e03b e53c e458 07bd e247 67bc 6837 5f3d
000003b0: 207c bfbd 30a9 edbd 6b3a 03be e39b 0ebe
000003c0: 088b 89be 0d27 9fbd d9fc 82bd 2f11 efbc
000003d0: 035e 1dbd 3086 efbc eb76 4cbd 0d8e c4bd
000003e0: 07d5 0d3e ea31 28bd d070 16bd ddc5 b13d
000003f0: c69f 52bd c8be 523d 2c4e ca3a 07b4 9f3c

fc1.0.bias f4 [120]
0.04432039 0.042923756 -0.037430894 -0.02995772 -0.03671897 0.005518043 0.042259444 0.061169423
0.03181675 0.00910327 -0.04858567 -0.020325169 -0.011459452 0.02313458 0.032560207 0.04014021
0.012194523 -0.0442006 -0.004590462 0.017143512 -0.006158377 -0.0063814144 0.040719952 -0.00040316005
-0.040329408 -0.0030822821 -0.009563634 0.0041476376 -0.021825982 0.0057238317 0.0060589127 -0.00088053435
0.030975642 0.025249029 -0.012412577 0.02216813 0.039269026 -0.007251271 0.0015392532 -0.020813944
-0.029066011 0.049673885 -0.020920815 -0.008966866 -0.033069674 -0.0056780786 -0.021645773 0.011169432
0.026305914 0.015551926 -0.06647259 -0.02091268 0.005136152 0.044195753 -0.01614553 -0.025658747
0.013374674 -0.0078963125 0.007938946 -0.0002836287 -0.010402032 -0.05852431 0.0051841894 0.022444926
-0.034231424 -0.016987449 0.021831226 0.04379781 -0.025695605 -0.026411675 0.0003672878 -0.003619594
-0.004917265 -0.04742646 -0.037167422 -0.038491983 -0.03104753 0.045165583 0.016316108 -0.0260834
-0.030171303 0.034659494 -0.03109304 -0.030719971 -0.020174656 -0.014100053 -0.009244406 0.016340645
-0.003412439 -0.05323084 0.032782055 0.019998763 -0.007929847 0.048142843 0.008088289 0.0026224188
0.025993172 -0.021918137 0.053643584 0.019333463 -0.0015933887 -0.008972209 -0.008840677 -0.0530574
-0.014517433 0.04958999 -0.020998467 0.006485732 0.0047731367 0.025994152 0.06879222 -0.027398936
0.03116025 0.06843802 0.033748433 0.0041041113 0.029244931 -0.02908577 0.033384804 -0.023132978
00000000: 4c89 353d d2d0 2f3d 2351 19bd e469 f5bc
00000010: a166 16bd b3d0 b43b 3d18 2d3d ca8c 7a3d
00000020: 4852 023d e225 153c c401 47bd f880 a6bc
00000030: 6dc0 3bbc bb84 bd3c da5d 053d 106a 243d
00000040: 89cb 473c b00b 35bd 966b 96bb 8d70 8c3c
00000050: 36cc c9bb 2f1b d1bb f7c9 263d 3a5f d3b9
00000060: 7330 25bd 1d00 4abb cab0 1cbc e8e8 873b
00000070: 67cc b2bc fb8e bb3b d889 c63b a9d3 66ba
00000080: a1c0 fd3c 0dd7 ce3c 1f5e 4bbc f099 b53c
00000090: 8fd8 203d 129c edbb c4c0 c93a 0182 aabc
000000a0: d81b eebc d876 4b3d 2162 abbc c3e9 12bc
000000b0: 1174 07bd 2d0f babb 7a52 b1bc feff 363c
000000c0: 807f d73c 81cd 7e3c c822 88bd 1251 abbc
000000d0: 2a4d a83b 9b06 353d a143 84bc 4b32 d2bc
000000e0: 7321 5b3c 895f 01bc 5a12 023c 00b4 94b9
000000f0: 496d 2abc 30b7 6fbd 22e0 a93b 6cde b73c
00000100: 4036 0cbd 4329 8bbc 66d7 b23c 5565 333d
00000110: 977f d2bc 4c5d d8bc 8990 c039 b636 6dbb
00000120: 0221 a1bb 3f42 42bd de3c 18bd c5a9 1dbd
00000130: 6457 febc 8cff 383d 5ca9 853c dbac d5bc
00000140: cf29 f7bc 1df7 0d3d d5b6 febc 73a8 fbbc
00000150: 5245 a5bc e903 67bc d975 17bc d1dc 853c
00000160: 3aa3 5fbb 9508 5abd 7a46 063d 72d4 a33c
00000170: 30ec 01bc 6e31 453d be84 043c e3dc 2b3b
00000180: a2ef d43c aa8d b3bc 60b9 5b3d 3661 9e3c
00000190: 41d9 d0ba 2c00 13bc 7dd8 10bc b752 59bd
000001a0: 87da 6dbc e01e 4b3d fa04 acbc 4386 d43b
000001b0: f967 9c3b b0f1 d43c efe2 8c3d bc73 e0bc
000001c0: c843 ff3c 3c29 8c3d cc3b 0a3d c87b 863b
000001d0: 1193 ef3c 4845 eebc 81be 083d 5f81 bdbc

fc1.1.weight f4 [120]
1.0293658 0.97399265 0.958963 0.9942738 1.0222102 0.8778834 0.9244864 0.96516764
0.8531932 0.9411722 0.9719285 0.96069604 0.95750284 1.0103807 1.0121835 0.9449825
0.91417265 0.9638994 1.0912758 1.0677994 0.9619844 1.0860857 0.9160168 1.0088613
0.9840526 0.8832429 1.0786847 1.0680633 1.0090995 0.99866414 1.1542622 1.1144648
0.99302846 1.0724847 1.0419327 1.0804319 1.0463505 0.99177563 1.04614 0.9333519
1.0624914 0.9853448 0.94219077 0.9713481 0.9025335 0.8534599 1.0116996 1.0275044
0.8660091 0.9633838 1.0696671 1.0650334 1.03337 0.9908029 0.91935796 1.080875
0.9605372 0.96970665 0.97120744 0.87062573 1.1295978 1.0998003 1.0675157 0.8702487
0.9218162 0.95462406 1.0593683 1.0084218 0.9298833 0.9953112 0.9896035 1.0930992
1.0411538 0.9091954 1.0004319 0.847678 0.9114692 1.0374705 0.94691455 1.0385128
0.9821237 1.0589534 1.0659517 0.9207008 1.0966132 1.1086717 0.99333763 1.0191859
1.1160228 0.9396882 0.9169497 0.9870776 1.1251261 1.0367976 1.0026529 0.86022866
0.86688447 0.9172901 1.0493301 0.99430126 1.0741796 0.8214771 0.95047444 0.9535604
0.92115724 1.0014521 1.0866871 1.0684097 1.1943016 0.88745296 1.018683 0.91050845
1.0868629 0.97334874 1.0482091 0.9257414 0.8486933 1.0407389 0.9678417 1.0158542
00000000: 42c2 833f 9557 793f 997e 753f ba88 7e3f
00000010: c9d7 823f f7bc 603f 24ab 6c3f 3a15 773f
00000020: df6a 5a3f a9f0 703f 4ed0 783f 2df0 753f
00000030: e81e 753f 2854 813f 3b8f 813f 60ea 713f
00000040: 3807 6a3f 1cc2 763f edae 8b3f a7ad 883f
00000050: 9c44 763f db04 8b3f 1480 6a3f 5e22 813f
00000060: dfea 7b3f 351c 623f 5712 8a3f 4cb6 883f
00000070: 2c2a 813f 74a8 7f3f ddbe 933f c8a6 8e3f
00000080: 1d37 7e3f 2e47 893f 0d5e 853f 984b 8a3f
00000090: d0ee 853f 02e5 7d3f eae7 853f 26f0 6e3f
000000a0: b8ff 873f 8f3f 7c3f 6a33 713f 45aa 783f
000000b0: 6f0c 673f 597c 5a3f 5f7f 813f 4485 833f
000000c0: c6b2 5d3f 52a0 763f daea 883f 0453 883f
000000d0: 7845 843f 42a5 7d3f 0b5b 6b3f 1d5a 8a3f
000000e0: c4e5 753f b23e 783f 0da1 783f 54e1 5e3f
000000f0: a996 903f 42c6 8c3f 5ba4 883f 9ec8 5e3f
00000100: 25fc 6b3f 3e62 743f 6199 873f f713 813f
00000110: d50c 6e3f b7cc 7e3f a856 7d3f adea 8b3f
00000120: 8744 853f 08c1 683f 270e 803f 6d01 593f
00000130: 0c56 693f d5cb 843f fe68 723f fded 843f
00000140: 756c 7b3f c98b 873f 1b71 883f 0cb3 6b3f
00000150: d25d 8c3f f4e8 8d3f 604b 7e3f af74 823f
00000160: d6d9 8e3f 688f 703f 37bd 6a3f 1eb1 7c3f
00000170: 2204 903f c9b5 843f ee56 803f f237 5c3f
00000180: 24ec 5d3f 86d3 6a3f 7350 863f 878a 7e3f
00000190: b87e 893f 534c 523f 4b52 733f 891c 743f
000001a0: f6d0 6b3f 952f 803f 9018 8b3f a6c1 883f
000001b0: e0de 983f 1e30 633f 3464 823f 1517 693f
000001c0: 531e 8b3f 622d 793f b72b 863f 63fd 6c3f
000001d0: f743 593f ef36 853f 79c4 773f 8307 823f

fc1.1.bias f4 [120]
0.00038178827 -0.11939546 -0.104183555 -0.2208822 -0.016478539 -0.0822613 -0.2510899 -0.07015393
-0.23136494 -0.11224985 -0.069725074 -0.16359872 -0.17376055 -0.0353465 -0.16184196 -0.091548614
-0.17150451 -0.16170357 -0.062286314 -0.1066203 -0.12777281 -0.015772326 -0.066699184 -0.17841637
-0.1431837 -0.13213809 -0.16301401 -0.06288941 -0.18190654 -0.17050031 -0.15531914 -0.14930068
-0.054208692 -0.105488695 -0.20537557 -0.12656629 -0.06619 -0.13887705 -0.05360427 -0.042495884
-0.05841959 -0.18950935 -0.16418216 -0.120704405 -0.14470637 -0.1883302 -0.1272752 -0.05350117
-0.08538011 -0.19980438 -0.07193915 -0.07650486 -0.1285903 -0.20161034 -0.19023338 -0.13611035
-0.13849106 -0.11583627 -0.054550152 -0.16709943 -0.16132846 -0.20975739 0.019954067 -0.19924776
-0.23710957 -0.18720654 -0.058707148 -0.08795428 -0.07687036 -0.031056408 -0.1365435 -0.068409935
-0.19322193 -0.2208807 -0.03231951 -0.13212332 -0.051523283 -0.13200438 0.10005379 -0.040814776
-0.13637781 -0.16565402 -0.0935884 -0.22405353 -0.08483029 -0.10953778 -0.07351608 -0.1495604
0.03963405 -0.16612193 -0.08003768 -0.06461872 -0.16328406 -0.038757622 -0.107269354 -0.07166842
-0.2300445 -0.07634324 -0.014501472 -0.18338543 -0.044372294 -0.16097951 -0.016325714 -0.11419269
-0.18495205 -0.05197066 -0.15353464 -0.08065817 -0.09471931 -0.12450493 -0.15380259 -0.13942625
-0.16980667 -0.007786701 -0.08913724 -0.11173596 -0.15498789 -0.18051483 -0.09996306 -0.22455704
00000000: c12a c839 9b85 f4bd 305e d5bd f22e 62be
00000010: 00fe 86bc 9d78 a8bd db8e 80be ddac 8fbd
00000020: eeea 6cbe 40e3 e5bd 05cc 8ebd 6c86 27be
00000030: 49ee 31be 7ec7 10bd e6b9 25be d77d bbbd
00000040: e19e 2fbe 9f95 25be ef1f 7fbd be5b dabd
00000050: e0d6 02be f734 81bc 9599 88bd c8b2 36be
00000060: bf9e 12be 354f 07be 25ed 26be 2acc 80bd
00000070: b545 3abe a297 2ebe fb0b 1fbe 47e2 18be
00000080: ef09 5ebd 750a d8bd f94d 52be 989a 01be
00000090: 9f8e 87bd c935 0ebe 2790 5bbd 2a10 2ebd
000000a0: 6149 6fbd bd0e 42be 5e1f 28be df33 f7bd
000000b0: e82d 14be a2d9 40be 6e54 02be 0b24 5bbd
000000c0: c4db aebd 8599 4cbe d554 93bd 94ae 9cbd
000000d0: 2dad 03be f172 4ebe 8acc 42be 8360 0bbe
000000e0: 9ad0 0dbe 913b edbd fb6f 5fbd 1d1c 2bbe
000000f0: 4a33 25be a4ca 56be b676 a33c 9b07 4cbe
00000100: dacc 72be 12b3 3fbe e876 70bd 6021 b4bd
00000110: 356e 9dbd 026a febc 0fd2 0bbe 821a 8cbd
00000120: f8db 45be 8d2e 62be 7661 04bd 564b 07be
00000130: 140a 53bd 282c 07be 00e9 cc3d 652d 27bd
00000140: a0a6 0bbe 35a1 29be 46ab bfbd 4a6e 65be
00000150: 81bb adbd 5855 e0bd 998f 96bd 5d26 19be
00000160: 5057 223d de1b 2abe ccea a3bd d256 84bd
00000170: f033 27be 50c0 1ebd 09b0 dbbd e5c6 92bd
00000180: c990 6bbe d859 9cbd 9597 6dbc 64c9 3bbe
00000190: b9bf 35bd d0d7 24be 81bd 85bc dbdd e9bd
000001a0: 1264 3dbe 30df 54bd 2f38 1dbe 1c30 a5bd
000001b0: 33fc c1bd 71fc febd 6d7e 1dbe c1c5 0ebe
000001c0: cde1 2dbe 9527 ffbb 968d b6bd d3d5 e4bd
000001d0: 25b5 1ebe e1d8 38be 6fb9 ccbd 48f2 65be

fc1.1.running_mean f4 [120]
-0.46536493 -0.26248583 -0.06142889 0.15356962 -0.25710586 0.4004757 -0.115781605 -0.47030717
-0.18803568 -0.8632451 -0.2558323 -0.38494468 0.13714953 0.08502771 -0.3625746 -0.24971357
-0.8650149 0.28355986 -0.16306786 -1.0018026 -0.43290746 -0.4401727 -0.09197382 -0.3853876
0.019053675 0.19028105 -0.8253925 -0.7124122 -0.3410016 -0.6245857 -0.9050387 -0.2204985
-0.45025513 -0.72721606 -0.9256389 -0.24982247 0.09299039 -0.75870174 -0.5544944 -0.50904745
0.13590926 -0.3064352 -0.29139364 -0.23328009 -0.6229552 0.3120504 0.18330242 -0.17818259
0.5235559 -0.37933847 -0.26922017 -0.8423465 -0.89822495 -0.2554654 -0.09422355 -0.24903323
-0.4826358 -0.51983076 -0.43141872 -0.010433989 -0.18362306 0.1454387 0.13785996 0.119386435
-0.019497035 -0.32936886 0.43386796 0.4401434 1.0149052 -0.34572977 0.053517133 -0.89768153
-1.0639185 -0.19232482 -0.40425003 0.8453385 -0.32803932 0.12566039 0.042768046 -0.6146619
0.13108717 0.0064569176 -0.40786394 -0.06920216 -0.91874593 -0.2624425 0.558149 0.44540167
-0.028641952 0.1996643 0.44662642 -0.8246515 -0.92893696 -0.8838931 0.34991825 -0.6149343
-0.5477818 0.449929 -0.7725894 0.6460888 -1.1199946 -0.33848494 0.18223564 -0.33849764
-0.23244877 -0.41450605 -0.3752618 -0.5207157 0.036788993 0.3870037 -0.884533 -0.332456
-0.059866477 -0.8189294 0.18080209 0.1763398 0.13017508 0.07445461 -0.14228345 -0.77519226
00000000: 5044 eebe 8b64 86be dc9c 7bbd 5b41 1d3e
00000010: 61a3 83be 270b cd3e e81e edbd 1acc f0be
00000020: 6d8c 40be a2fd 5cbf 74fc 82be 7817 c5be
00000030: ed70 0c3e 0223 ae3d 61a3 b9be eab4 7fbe
00000040: 9e71 5dbf c22e 913e 43fb 26be 113b 80bf
00000050: 0ca6 ddbe 515e e1be c55c bcbd 8651 c5be
00000060: 7416 9c3c 09d9 423e ec4c 53bf a560 36bf
00000070: c397 aebe d9e4 1fbf 9eb0 67bf 5cca 61be
00000080: d787 e6be d52a 3abf acf6 6cbf 76d1 7fbe
00000090: bf71 be3d 473a 42bf 58f3 0dbf ef50 02bf
000000a0: cc2b 0b3e 13e5 9cbe 8c31 95be fae0 6ebe
000000b0: fe79 1fbf 12c5 9f3e a1b3 3b3e 7f75 36be
000000c0: c207 063f a738 c2be 3ad7 89be 05a4 57bf
000000d0: 12f2 65bf 5ccc 82be 47f8 c0bd 9102 7fbe
000000e0: 0a1c f7be a113 05bf eae2 dcbe 52f3 2abc
000000f0: af07 3cbe e2ed 143e 292b 0d3e e080 f43d
00000100: 3fb8 9fbc 09a3 a8be f123 de3e 7a5a e13e
00000110: 6ae8 813f 7e03 b1be c834 5b3d 75ce 65bf
00000120: 7b2e 88bf ccf0 44be dcf9 cebe 1b68 583f
00000130: c5f4 a7be 1ead 003e 8c2d 2f3d 7b5a 1dbf
00000140: b73b 063e 8d94 d33b 8bd3 d0be ddb9 8dbd
00000150: ef32 6bbf dd5e 86be dae2 0e3f b00b e43e
00000160: 87a2 eabc cc74 4c3e 38ac e43e 5c1c 53bf
00000170: d0ce 6dbf d146 62bf 7c28 b33e 566c 1dbf
00000180: 6e3b 0cbf 185d e63e 6bc8 45bf 1366 253f
00000190: fc5b 8fbf e64d adbe fb9b 3a3e 904f adbe
000001a0: 0d07 6ebe 233a d4be 5122 c0be a04d 05bf
000001b0: 0eb0 163d 5925 c63e c170 62bf ac37 aabe
000001c0: 8d36 75bd 5ba5 51bf 2f24 393e 6c92 343e
000001d0: 9e4c 053e a97b 983d c1b2 11be 0073 46bf

fc1.1.running_var f4 [120]
0.22481255 0.18708321 0.20603849 0.17084551 0.15030067 0.2018478 0.14973094 0.16969863
0.14620753 0.18448427 0.19248006 0.134393 0.1490651 0.26085204 0.21367009 0.17910232
0.17587806 0.15660979 0.21535327 0.2597731 0.14187212 0.12561126 0.18712182 0.24087878
0.14555815 0.1818344 0.15825178 0.17138809 0.1677768 0.2763111 0.19060214 0.15199767
0.18658924 0.28607228 0.14963579 0.17046086 0.22481981 0.21498238 0.19789867 0.1737438
0.13425528 0.18149695 0.14626884 0.22199716 0.21418886 0.17522822 0.1677017 0.20391561
0.13621406 0.33232152 0.14155969 0.17308491 0.17320047 0.18698959 0.13975506 0.203252
0.18094145 0.22754526 0.23805934 0.16969417 0.1871121 0.15451692 0.15127645 0.11861977
0.14911021 0.16147654 0.1252011 0.13458301 0.22701743 0.1808052 0.14313857 0.19489172
0.19793 0.14896764 0.24375899 0.19855146 0.20142263 0.19768025 0.17117906 0.13846284
0.15108098 0.16064923 0.23879974 0.1957122 0.18053684 0.16152966 0.15440612 0.15624008
0.15952174 0.11659524 0.26424876 0.27688903 0.25065368 0.19204466 0.23009704 0.1893722
0.24959266 0.18308243 0.15852457 0.21204734 0.23558831 0.16950428 0.20788552 0.18086517
0.1618369 0.2200079 0.15541282 0.2308445 0.2034918 0.15219136 0.2119517 0.17577489
0.20142399 0.28204468 0.18049563 0.15549846 0.18703535 0.17049022 0.1402442 0.18616928
00000000: 4335 663e be92 3f3e c1fb 523e 20f2 2e3e
00000010: 6be8 193e 31b1 4e3e 1153 193e 7ac5 2d3e
00000020: 6db7 153e 72e9 3c3e 7e19 453e 529e 093e
00000030: 86a4 183e 668e 853e 55cc 5a3e 9966 373e
00000040: 6119 343e 515e 203e 9185 5c3e fb00 853e
00000050: ed46 113e 3da0 003e dd9c 3f3e eda8 763e
00000060: 320d 153e cc32 3a3e c10c 223e 5c80 2f3e
00000070: aecd 2b3e a678 8d3e 352d 433e 47a5 1b3e
00000080: 4011 3f3e 1178 923e 203a 193e 4b8d 2e3e
00000090: 2a37 663e 5724 5c3e f3a5 4a3e e5e9 313e
000000a0: 377a 093e 56da 393e 80c7 153e 3953 633e
000000b0: 5354 5b3e 076f 333e ffb9 2b3e 41cf 503e
000000c0: b37b 0b3e 0c26 aa3e 06f5 103e 2c3d 313e
000000d0: 775b 313e 337a 3f3e f31b 0f3e 4b21 503e
000000e0: b748 393e a001 693e d4c5 733e 4fc4 2d3e
000000f0: 509a 3f3e af39 1e3e 37e8 1a3e ecee f23d
00000100: 59b0 183e 1b5a 253e b834 003e 21d0 093e
00000110: 4277 683e 0025 393e eb92 123e b291 473e
00000120: 29ae 4a3e f98a 183e f59b 793e 1351 4b3e
00000130: bc41 4e3e b16c 4a3e 9049 2f3e 34c9 0d3e
00000140: f9b4 1a3e 3b81 243e eb87 743e c768 483e
00000150: a6de 383e 0868 253e a31c 1e3e 66fd 1f3e
00000160: ab59 233e 7cc9 ee3d 9d4b 873e 66c4 8d3e
00000170: ae55 803e 5ba7 443e 8f9e 6b3e c9ea 413e
00000180: 3895 7f3e f679 3b3e 4454 223e f022 593e
00000190: 103e 713e 8892 2d3e f1df 543e b834 393e
000001a0: 93b8 253e c049 613e 8a24 1f3e 8062 6c3e
000001b0: 2860 503e 0dd8 1b3e de09 593e 55fe 333e
000001c0: 1742 4e3e 2968 903e d9d3 383e fd3a 1f3e
000001d0: 3286 3f3e fd94 2e3e 2d9c 0f3e 29a3 3e3e

fc2.0.weight f4 [84, 120]
-0.074876435 -0.23400676 0.039505918 0.02809688 -0.040870875 -0.055463575 -0.051298514 0.07958178
0.12982719 -0.03668434 -0.0189653 0.1965981 0.10856572 -0.064614795 -0.08361185 0.03631497
-0.02841118 0.2501998 -0.21982352 -0.014298324 0.03014252 0.13291381 -0.2232279 -0.032277506
-0.111056365 -0.02693916 -0.022458384 -0.13814037 -0.21967088 0.017227028 0.08624524 -0.10952296
0.053306974 0.10533964 -0.13076183 -0.037923057 -0.041660137 -0.06265304 0.037743594 -0.10113656
0.023722034 -0.045138516 -0.040208817 -0.03603828 0.010959151 -0.031458884 -0.069644466 -0.005469609
-0.10925119 0.0059356457 0.17949276 -0.23923828 0.06304707 0.05617869 0.050366342 -0.012915165
-0.0433979 0.07804619 0.029439477 0.03904698 0.15331084 0.09560918 -0.06893977 -0.106852084
0.16828594 0.023896871 -0.030971862 -0.23811866 0.029226203 -0.1420353 0.041529898 0.13499759
0.08164819 0.01679193 -0.0027190512 0.0058323923 0.16442457 0.12537616 -0.12016963 0.083754376
0.0021290507 -0.037366383 0.11641897 0.09670514 0.08188438 0.0068924245 0.20869328 0.078946106
0.052240327 -0.15107717 -0.009019683 0.10635024 0.028746683 -0.08771262 0.21421513 0.052541316
-0.061844725 0.022297896 0.22871675 -0.0645805 0.056586236 -0.07342337 0.100998975 0.045158178
-0.043539107 0.030361226 0.10427817 -0.105223835 0.27237114 -0.08918703 -0.02773757 0.119468145
-0.007493084 -0.066171825 0.10380855 0.0832766 -0.034268823 -0.13548459 -0.089531355 0.092184834
-0.13698435 -0.0983565 0.032808386 0.03579464 -0.0064452393 -0.11061361 -0.055323232 -0.061469395
0.17422374 -0.0438558 -0.037354287 -0.034060966 0.18806638 -0.03679544 0.02093184 0.08145484
0.10191728 0.20081957 -0.17359991 0.011876359 -0.106123425 0.039425794 -0.13900618 0.015532179
0.039626874 -0.0019126965 -0.0026118155 -0.08297546 -0.22584252 0.040029652 0.040239863 0.1660643
0.12945242 0.18988398 0.053477377 -0.09819441 0.04850824 -0.031105388 0.010403398 -0.23646182
0.16971326 -0.061068445 -0.12813233 -0.060812987 -0.02798001 -0.014229304 -0.024880575 -0.001318299
-0.0763754 -0.061270487 0.08921188 0.0838648 0.05502641 0.24994282 0.15448453 0.082335114
-0.026777472 0.057447452 -0.23346224 -0.1060256 0.07863784 0.18079227 0.12385221 -0.030817775
0.16470435 -0.08242461 0.06595197 -0.13848625 -0.021075977 -0.1391732 -0.10655448 0.058890715
0.11156528 0.10860514 -0.007404847 0.05972015 0.18970068 0.12066712 -0.06608249 0.09750858
0.0040181894 0.12208066 0.051284026 0.054372936 0.13652629 -0.015304419 -0.05943478 0.013633632
0.048144188 0.08845844 0.08035132 0.0934703 0.1674953 0.015864044 0.09932399 -0.08716649
-0.07748061 -0.08422674 -0.013096782 -0.0038366085 -0.09110433 -0.0067422553 0.083200656 0.07726108
-0.02122558 -0.13304374 0.18646374 0.0018440426 0.1324486 -0.12538986 -0.071873344 0.047685765
0.08532195 0.054322872 0.19651663 -0.16831516 0.010311291 -0.009449235 -0.10922755 0.07558404
0.042126216 0.05694769 -0.17065817 -0.024839588 0.21737139 0.07769236 -0.061205287 -0.010925002
0.05488711 0.20021744 0.031707183 -0.09164499 -0.23117594 0.09981343 0.015481392 -0.03696303
00000000: d158 99bd 789f 6fbe f5d0 213d 6e2b e63c
00000010: 3868 27bd c62d 63bd 641e 52bd c6fb a23d
00000020: 6bf1 043e 5242 16bd 1e5d 9bbc 0351 493e
00000030: b457 de3d c354 84bd b13c abbd 02bf 143d
00000040: 90be e8bc 301a 803e 6b19 61be 8443 6abc
00000050: 72ed f63c 8f1a 083e db95 64be 6b35 04bd
00000060: 8571 e3bd 83af dcbc a5fa b7bc ab74 0dbe
00000070: 67f1 60be b21f 8d3c 58a1 b03d 934d e0bd
00000080: 6a58 5a3d 4fbc d73d 6ee6 05be 3555 1bbd
00000090: d2a3 2abd 3d50 80bd 0799 1a3d af20 cfbd
000000a0: b654 c23c 2ae3 38bd 00b2 24bd e09c 13bd
000000b0: 038e 333c 08db 00bd c2a1 8ebd 683a b3bb
000000c0: 17bf dfbd ce7f c23b f3cc 373e e1fa 74be
000000d0: d21e 813d a01b 663d f04c 4e3d 219a 53bc
000000e0: ffc1 31bd aed6 9f3d 0f2b f13c baef 1f3d
000000f0: 84fd 1c3e bfce c33d 4b30 8dbd 44d5 dabd
00000100: 2653 2c3e 5fc3 c33c b4b8 fdbc 61d5 73be
00000110: ca6b ef3c b471 11be 411b 2a3d cf3c 0a3e
00000120: 2b37 a73d 3b8f 893c 1c32 32bb a71d bf3b
00000130: ea5e 283e 9c62 003e 7f1b f6bd 6a87 ab3d
00000140: 8b87 0b3b 7e0d 19bd 126d ee3d 580d c63d
00000150: ffb2 a73d d9d9 e13b b1b3 553e 7fae a13d
00000160: f4f9 553d f9b3 1abe 4bc7 13bc 28ce d93d
00000170: 2a7e eb3c ada2 b3bd 365b 5b3e 9035 573d
00000180: e550 7dbd 14aa b63c b934 6a3e c842 84bd
00000190: f8c6 673d fe5e 96bd 8dd8 ce3d c8f7 383d
000001a0: 1056 32bd 1bb8 f83c cb8f d53d 987f d7bd
000001b0: 3b74 8b3e b1a7 b6bd e739 e3bc b7ab f43d
000001c0: 8b88 f5bb 1885 87bd 9499 d43d ec8c aa3d
000001d0: 775d 0cbd 79bc 0abe 375c b7bd 67cb bc3d
000001e0: a045 0cbe 226f c9bd 1662 063d 679d 123d
000001f0: 9632 d3bb 6389 e2bd 9d9a 62bd 55c7 7bbd
00000200: b567 323e 24a2 33bd cf00 19bd 8383 0bbd
00000210: 7994 403e d1b6 16bd 4079 ab3c ccd1 a63d
00000220: 02ba d03d a5a3 4d3e 2dc4 31be 0f95 423c
00000230: 3d57 d9bd f17c 213d a357 0ebe ae7a 7e3c
00000240: ca4f 223d 72b3 faba fe2a 2bbb 0aef a9bd
00000250: 4343 67be 22f6 233d 8ed2 243d c30c 2a3e
00000260: 2d8f 043e f270 423e 180b 5b3d 271a c9bd
00000270: 94b0 463d bad0 febc 0473 2a3c 0c23 72be
00000280: 50c9 2d3e e822 7abd 1f35 03be 0a17 79bd
00000290: 5536 e5bc 0722 69bc 59d2 cbbc c6ca acba
000002a0: b56a 9cbd c3f6 7abd b8b4 b63d 4fc1 ab3d
000002b0: 5f63 613d 03f1 7f3e 3131 1e3e 509f a83d
000002c0: 6e5c dbbc 054e 6b3d ba10 6fbe f323 d9bd
000002d0: e00c a13d 9c21 393e 3aa6 fd3d 8f75 fcbc
000002e0: 42a8 283e 3cce a8bd d411 873d 57cf 0dbe
000002f0: 87a7 acbc 6b83 0ebe 3c39 dabd 6437 713d
00000300: 567c e43d 5f6c de3d 5ca4 f2bb 1e9d 743d
00000310: e540 423e 5320 f73d 4256 87bd 94b2 c73d
00000320: 04ab 833b 6d05 fa3d 330f 523d 28b6 5e3d
00000330: 8ccd 0b3e 63bf 7abc e271 73bd 995f 5f3c
00000340: d732 453d b329 b53d 3c8f a43d 5b6d bf3d
00000350: e383 2b3e 50f5 813c 606a cb3d 5884 b2bd
00000360: 27ae 9ebd 127f acbd e393 56bc 9c6f 7bbb
00000370: e894 babd 23ee dcbb 1b65 aa3d 0f3b 9e3d
00000380: 44e1 adbc 9e3c 08be 5af0 3e3e cdb3 f13a
00000390: 9ba0 073e 3366 00be 5532 93bd 2652 433d
000003a0: 46bd ae3d a981 5e3d a83b 493e cf5a 2cbe
000003b0: b0f0 283c f7d0 1abc b2b2 dfbd cecb 9a3d
000003c0: 8a8c 2c3d fb41 693d 04c1 2ebe 647c cbbc
000003d0: 9b96 5e3e 2c1d 9f3d 65b2 7abd c8fe 32bc
000003e0: 4ed1 603d cd05 4d3e 64df 013d 5eb0 bbbd
000003f0: 63b9 6cbe fc6a cc3d aaa5 7d3c 8c66 17bd

fc2.0.bias f4 [84]
0.0019704537 -0.06520507 -0.067588545 -0.037352953 0.033635717 -0.025771236 -0.02935694 0.037691485
-0.08671279 0.004921206 -0.016898947 0.010949143 0.0465405 -0.026627764 -0.013800506 0.06645325
-0.027074622 -0.06908786 0.07378315 0.07980832 -0.0807644 0.03815446 -0.002972087 0.022742298
0.05855204 -0.014266533 -0.084400885 -0.07435024 0.048071202 -0.025223546 -0.07276513 -0.022995792
-0.035486553 0.04013614 0.044317007 0.08767693 0.008023383 0.028233016 -0.035336483 0.036197152
-0.0896254 -0.06047762 -0.08283258 -0.05450356 -0.023593178 -0.004163556 0.004413932 0.025180725
0.012386154 -0.07771909 0.037836816 -0.051335223 -0.044953916 0.03560041 -0.082988665 -0.061373323
0.023047175 0.04039202 -0.0072387243 0.03238475 -0.039787754 -0.07118852 0.0941306 -0.043555427
-0.004614823 -0.044875592 -0.049455393 -0.062327806 -0.024097098 0.053811565 -0.08383722 -0.07774333
-0.06976668 0.01470145 0.017071525 -0.08447103 0.03854342 0.051664263 -0.0068060174 -0.060591508
0.001617842 -0.035429552 0.06056715 0.053761
00000000: ba22 013b 3c8a 85bd dd6b 8abd 69ff 18bd
00000010: 9bc5 093d 331e d3bc f77d f0bc 6362 1a3d
00000020: 7a96 b1bd 1142 a13b a96f 8abc 0964 333c
00000030: 40a1 3e3d 7822 dabc 841b 62bc a418 883d
00000040: 99cb ddbc f07d 8dbd 9f1b 973d 8b72 a33d
00000050: ce67 a5bd da47 1c3d 58c7 42bb 0e4e ba3c
00000060: 44d4 6f3d 2dbe 69bc 5fda acbd f044 98bd
00000070: 4fe6 443d 9ca1 cebc e205 95bd ac61 bcbc
00000080: 595a 11bd cb65 243d c085 353d f68f b33d
00000090: 8274 033c ed48 e73c fdbc 10bd 7743 143d
000000a0: 868d b7bd 62b7 77bd 21a4 a9bd 203f 5fbd
000000b0: 7b46 c1bc 706e 88bb bfa2 903b cf47 ce3c
000000c0: 4cef 4a3c 302b 9fbd c7fa 1a3d e244 52bd
000000d0: 9921 38bd bcd1 113d f6f5 a9bd 9862 7bbd
000000e0: 6ecd bc3c 1a72 253d d232 edbb dfa5 043d
000000f0: 7cf8 22bd 49cb 91bd 8bc7 c03d 2d67 32bd
00000100: f137 97bb 78cf 37bd bd91 4abd 714b 7fbd
00000110: 4767 c5bc 8469 5c3d d9b2 abbd e537 9fbd
00000120: d5e1 8ebd 5ade 703c 95d9 8b3c 26ff acbd
00000130: b5df 1d3d e89d 533d 0305 dfbb cd2e 78bd
00000140: c50d d43a 941e 11bd 4315 783d 7f34 5c3d

fc2.1.weight f4 [84]
1.332429 1.4254284 1.3008785 1.4101957 1.4699019 1.3318729 1.4366922 1.4832153
1.3800611 1.3101952 1.491446 1.349019 1.3676623 1.411757 1.3147222 1.4973086
1.4365469 1.577161 1.3248113 1.3720944 1.4721854 1.4421433 1.5095919 1.5227522
1.4069633 1.4792557 1.4126954 1.3612168 1.43433 1.5004013 1.5234895 1.3873698
1.4686052 1.3376508 1.4613358 1.3828033 1.4817002 1.4200339 1.4237614 1.4029009
1.5124413 1.4458936 1.3543397 1.4385968 1.4875362 1.5249697 1.3308151 1.3754976
1.4438603 1.3975068 1.5055009 1.3594664 1.381939 1.410715 1.4684929 1.3677516
1.3438897 1.5107924 1.413217 1.4999135 1.4225739 1.3465114 1.4619217 1.5576111
1.320304 1.4991052 1.304504 1.463314 1.3710405 1.5197879 1.357149 1.3702792
1.4397545 1.444679 1.337284 1.3710895 1.3895284 1.2905135 1.3293434 1.3460944
1.5193858 1.4247943 1.3442351 1.3626611
00000000: 098d aa3f 7074 b63f 3083 a63f 4b81 b43f
00000010: bf25 bc3f d07a aa3f 88e5 b73f 00da bd3f
00000020: d8a5 b03f 7ab4 a73f b4e7 be3f a8ac ac3f
00000030: 8f0f af3f 74b4 b43f d148 a83f cfa7 bf3f
00000040: c5e0 b73f 69e0 c93f 6b93 a93f caa0 af3f
00000050: 9270 bc3f 2798 b83f 4f3a c13f 8be9 c23f
00000060: 6017 b43f 4058 bd3f 34d3 b43f 5a3c ae3f
00000070: 2098 b73f 260d c03f b401 c33f 5595 b13f
00000080: 41fb bb3f 2438 ab3f 0d0d bb3f b3ff b03f
00000090: 5aa8 bd3f acc3 b53f d03d b63f 4292 b33f
000000a0: ad97 c13f 0b13 b93f 015b ad3f f123 b83f
000000b0: 9667 be3f 3532 c33f 2658 aa3f 4e10 b03f
000000c0: 6ad0 b83f 81e1 b23f 41b4 c03f ff02 ae3f
000000d0: 61e3 b03f 4f92 b43f 93f7 bb3f 7c12 af3f
000000e0: 9404 ac3f a561 c13f 4be4 b43f 2afd bf3f
000000f0: e716 b63f 7c5a ac3f 4020 bb3f cd5f c73f
00000100: b9ff a83f aee2 bf3f fdf9 a63f e04d bb3f
00000110: 417e af3f 6988 c23f 0fb7 ad3f 4f65 af3f
00000120: e049 b83f 3eeb b83f 1f2c ab3f dc7f af3f
00000130: 11dc b13f 8c2f a53f ed27 aa3f d24c ac3f
00000140: 3c7b c23f a95f b63f e50f ac3f ae6b ae3f

fc2.1.bias f4 [84]
0.24458297 0.24730277 0.25485355 0.28593433 0.2330096 0.25873354 0.2827398 0.2805716
0.20030518 0.26726648 0.2611244 0.22868972 0.2503487 0.32723 0.1847508 0.24981387
0.25721744 0.26545757 0.2073144 0.22750667 0.25013894 0.24215288 0.29685235 0.2892008
0.22774503 0.34096506 0.28405914 0.26239216 0.21655479 0.36020416 0.29901874 0.25217044
0.30442345 0.17410912 0.2114801 0.18897294 0.27311483 0.25948545 0.22659406 0.29991636
0.29683518 0.27079222 0.31296438 0.20037918 0.27480915 0.26498634 0.24916075 0.24043427
0.21336862 0.2310695 0.29307103 0.24617067 0.2778682 0.21888627 0.27329385 0.23437206
0.26639 0.28659362 0.3137826 0.25635278 0.27518192 0.1520425 0.28807795 0.33338645
0.2085463 0.308012 0.21752048 0.10816265 0.18173681 0.31115818 0.255407 0.2075324
0.28204295 0.30289948 0.256486 0.19955212 0.18575685 0.27194637 0.29271582 0.28349468
0.3523064 0.18016723 0.22408749 0.2280238
00000000: f573 7a3e f03c 7d3e 2a7c 823e fc65 923e
00000010: 129a 6e3e b978 843e 45c3 903e 15a7 8f3e
00000020: cd1c 4d3e 27d7 883e 19b2 853e a32d 6a3e
00000030: b42d 803e b18a a73e 502f 3d3e 35cf 7f3e
00000040: 01b2 833e 0eea 873e 3a4a 543e 82f7 683e
00000050: 3612 803e edf6 773e 08fd 973e 2112 943e
00000060: fe35 693e f992 ae3e 3370 913e 4458 863e
00000070: 8ac0 5d3e ae6c b83e fc18 993e 7c1c 813e
00000080: 64dd 9b3e a949 323e 3d8e 583e 1f82 413e
00000090: b5d5 8b3e 47db 843e 4608 683e a38e 993e
000000a0: c8fa 973e 47a5 8a3e de3c a03e 3330 4d3e
000000b0: c9b3 8c3e 4aac 873e ff23 7f3e 6734 763e
000000c0: 4e7d 5a3e 7c9d 6c3e 680d 963e 2a14 7c3e
000000d0: be44 8e3e b923 603e 2ced 8b3e 3bff 6f3e
000000e0: 4564 883e 66bc 923e 1da8 a03e ac40 833e
000000f0: a5e4 8c3e 07b1 1b3e f47e 933e a1b1 aa3e
00000100: 298d 553e c0b3 9d3e b0bd 5e3e 6184 dd3d
00000110: 3719 3a3e 2050 9f3e b5c4 823e 6083 543e
00000120: ef67 903e a415 9b3e 2252 833e 6457 4c3e
00000130: 0b37 3e3e 8e3c 8b3e d9de 953e 3726 913e
00000140: 8161 b43e c27d 383e 3177 653e 127f 693e

fc2.1.running_mean f4 [84]
0.2736584 0.55079746 0.051354498 0.51052433 -0.30807075 -0.44855216 -0.17440943 -0.04976517
0.15010333 -0.25047818 0.6329346 0.09940569 -0.2661991 -0.25607112 -0.03217487 -0.21455935
-0.5086319 -0.17576751 0.13293658 0.5480884 -0.26017335 0.45649445 0.27504298 -0.36706895
0.048504125 -0.21578826 0.026683327 -0.07560547 0.56347907 0.017399888 0.23570135 -0.54393065
-0.27722695 0.10164696 0.5328911 0.76995 -0.34716097 -0.28503495 -0.27799925 -0.0940905
-0.7923346 -0.31542 -0.22700928 -0.48910135 -0.09389785 0.069946475 0.25113606 -0.47556394
-0.13161004 0.41056007 -0.3593093 -0.4034499 -0.059083503 0.05196258 0.27347735 -0.7843803
-0.16881163 0.091085844 0.19374596 -0.21197088 -0.5408149 0.3112685 0.4359935 -0.3917139
0.077749066 0.13830502 -0.13295802 1.4538355 -0.22420412 -0.5577665 -0.15928124 -0.3295428
-0.6450096 -0.16202028 0.50426555 0.046118848 -0.27930453 -0.34682736 -0.17746104 0.2796173
-0.30455387 -0.3128781 0.36146635 0.17158481
00000000: f41c 8c3e 1001 0d3f 1859 523d b9b1 023f
00000010: 73bb 9dbe a1a8 e5be 6398 32be 90d6 4bbd
00000020: b0b4 193e ad3e 80be 0008 223f 3695 cb3d
00000030: 404b 88be c11b 83be ccc9 03bd 72b5 5bbe
00000040: b335 02bf 66fc 33be 8720 083e 854f 0c3f
00000050: 7135 85be a4b9 e93e 6fd2 8c3e 76f0 bbbe
00000060: 43ac 463d 99f7 5cbe fe96 da3c 0ad7 9abd
00000070: 2a40 103f 368a 8e3c b25b 713e 0a3f 0bbf
00000080: b1f0 8dbe 482c d03d 8d6b 083f 711b 453f
00000090: 15bf b1be 1af0 91be eb55 8ebe 85b2 c0bd
000000a0: 71d6 4abf bb7e a1be 1f75 68be 7e6b fabe
000000b0: 844d c0bd 1940 8f3d e894 803e 1e7d f3be
000000c0: c8c4 06be ee34 d23e 63f7 b7be fc90 cebe
000000d0: 8b01 72bd b7d6 543d 3905 8c3e 26cd 48bf
000000e0: f5dc 2cbe 378b ba3d 5765 463e e50e 59be
000000f0: d872 0abf 965e 9f3e 8a3a df3e b98e c8be
00000100: e73a 9f3d d59f 0d3e 2626 08be 4817 ba3f
00000110: c495 65be c9c9 0ebf 9f1a 23be d5b9 a8be
00000120: 591f 25bf a5e8 25be 8c17 013f 1ee7 3c3d
00000130: 0101 8fbe 5b93 b1be 59b8 35be 002a 8f3e
00000140: 7cee 9bbe 8f31 a0be 1e12 b93e eeb3 2f3e

fc2.1.running_var f4 [84]
1.0819502 1.1313899 1.0355582 1.535002 1.2210461 1.074977 1.2981182 1.2075315
1.1705301 1.2692713 1.5308307 1.3142223 1.1385102 2.2914314 1.2098861 1.2154903
1.4737071 1.9179323 1.2166755 1.2872281 1.1600449 0.91036 1.3974519 1.1293173
1.166118 1.0279185 1.0054989 1.6707232 1.557336 1.1805513 1.3811859 1.1978625
0.95816064 0.8512419 0.9680812 1.5103344 1.02911 1.78294 1.1434463 1.0721321
1.1635455 1.1777748 1.1843061 1.015644 1.1307387 1.463378 0.97144216 1.7412211
1.1855332 1.5005324 1.0756384 1.0008737 1.1318794 1.1446776 1.331975 1.0099342
1.4196893 1.487318 1.5434918 1.4305027 1.0785234 1.2053716 1.4981581 1.0509257
0.7707457 1.7530429 1.500949 1.337696 1.2278422 1.0426104 1.4899459 1.0550007
1.7701123 1.595177 1.0351954 0.9765705 1.130673 0.8939198 1.682998 1.2501369
1.1427304 1.2483454 1.3913661 0.89106184
00000000: 587d 8a3f 62d1 903f 2c8d 843f f27a c43f
00000010: 3d4b 9c3f d998 893f bd28 a63f 6490 9a3f
00000020: eed3 953f 7b77 a23f 43f2 c33f 7038 a83f
00000030: b4ba 913f d0a6 1240 8cdd 9a3f 3095 9b3f
00000040: 6fa2 bc3f ce7e f53f 06bc 9b3f e4c3 a43f
00000050: 5a7c 943f 5a0d 693f b4df b23f 788d 903f
00000060: 5b43 953f d592 833f 30b4 803f 42da d53f
00000070: c956 c73f 4e1c 973f b3ca b03f 8f53 993f
00000080: 044a 753f fdea 593f 2bd4 773f a352 c13f
00000090: e0b9 833f 6137 e43f 735c 923f a03b 893f
000000a0: 0fef 943f 53c1 963f 5897 973f 9f00 823f
000000b0: 0cbc 903f f84f bb3f 6fb0 783f 55e0 de3f
000000c0: 8dbf 973f 7211 c03f 85ae 893f a11c 803f
000000d0: 6de1 903f cc84 923f 287e aa3f 8645 813f
000000e0: 61b8 b53f 7060 be3f 2491 c53f b61a b73f
000000f0: 0e0d 8a3f 9e49 9a3f a5c3 bf3f bc84 863f
00000100: 974f 453f b663 e03f 191f c03f 9f39 ab3f
00000110: ef29 9d3f 4274 853f 8cb6 be3f 430a 873f
00000120: 0a93 e23f c32e cc3f 4881 843f 8600 7a3f
00000130: e5b9 903f eed7 643f 7a6c d73f 7c04 a03f
00000140: fd44 923f c8c9 9f3f 4918 b23f a11c 643f
